…
= 
320
frame size = 
640
in call input shape = 
(12, 16000)
Tensor("input_1:0", shape=(12, 16000), dtype=float32)
outputs shape
(12, 16000)
Tensor("speech_features/lambda/lambda/Identity:0", shape=(12, 16000), dtype=float32)
Model: "model"
_________________________________________________________________
 Layer (type)                Output Shape              Param #   
=================================================================
 input_1 (InputLayer)        [(12, 16000)]             0         
                                                                 
 speech_features (SpeechFeat  (12, 49, 20)             0         
 ures)                                                           
                                                                 
 tf_op_layer_ExpandDims (Ten  [(12, 49, 20, 1)]        0         
 sorFlowOpLayer)                                                 
                                                                 
 stream (Stream)             (12, 45, 18, 300)         3000      
                                                                 
 batch_normalization (BatchN  (12, 45, 18, 300)        900       
 ormalization)                                                   
                                                                 
 activation (Activation)     (12, 45, 18, 300)         0         
                                                                 
 stream_1 (Stream)           (12, 43, 16, 300)         3000      
                                                                 
 batch_normalization_1 (Batc  (12, 43, 16, 300)        900       
 hNormalization)                                                 
                                                                 
 activation_1 (Activation)   (12, 43, 16, 300)         0         
                                                                 
 conv2d_1 (Conv2D)           (12, 43, 16, 300)         90300     
                                                                 
 batch_normalization_2 (Batc  (12, 43, 16, 300)        900       
 hNormalization)                                                 
                                                                 
 activation_2 (Activation)   (12, 43, 16, 300)         0         
                                                                 
 stream_2 (Stream)           (12, 39, 12, 300)         3000      
                                                                 
 batch_normalization_3 (Batc  (12, 39, 12, 300)        900       
 hNormalization)                                                 
                                                                 
 activation_3 (Activation)   (12, 39, 12, 300)         0         
                                                                 
 conv2d_2 (Conv2D)           (12, 39, 12, 300)         90300     
                                                                 
 batch_normalization_4 (Batc  (12, 39, 12, 300)        900       
 hNormalization)                                                 
                                                                 
 activation_4 (Activation)   (12, 39, 12, 300)         0         
                                                                 
 stream_3 (Stream)           (12, 30, 10, 300)         9300      
                                                                 
 batch_normalization_5 (Batc  (12, 30, 10, 300)        900       
 hNormalization)                                                 
                                                                 
 activation_5 (Activation)   (12, 30, 10, 300)         0         
                                                                 
 conv2d_3 (Conv2D)           (12, 30, 10, 300)         90300     
                                                                 
 batch_normalization_6 (Batc  (12, 30, 10, 300)        900       
 hNormalization)                                                 
                                                                 
 activation_6 (Activation)   (12, 30, 10, 300)         0         
                                                                 
 stream_4 (Stream)           (12, 22, 6, 300)          4800      
                                                                 
 batch_normalization_7 (Batc  (12, 22, 6, 300)         900       
 hNormalization)                                                 
                                                                 
 activation_7 (Activation)   (12, 22, 6, 300)          0         
                                                                 
 conv2d_4 (Conv2D)           (12, 22, 6, 300)          90300     
                                                                 
 batch_normalization_8 (Batc  (12, 22, 6, 300)         900       
 hNormalization)                                                 
                                                                 
 activation_8 (Activation)   (12, 22, 6, 300)          0         
                                                                 
 stream_5 (Stream)           (12, 13, 4, 300)          9300      
                                                                 
 batch_normalization_9 (Batc  (12, 13, 4, 300)         900       
 hNormalization)                                                 
                                                                 
 activation_9 (Activation)   (12, 13, 4, 300)          0         
                                                                 
 conv2d_5 (Conv2D)           (12, 13, 4, 300)          90300     
                                                                 
 batch_normalization_10 (Bat  (12, 13, 4, 300)         900       
 chNormalization)                                                
                                                                 
 activation_10 (Activation)  (12, 13, 4, 300)          0         
                                                                 
 stream_6 (Stream)           (12, 1, 1, 300)           0         
                                                                 
 stream_7 (Stream)           (12, 300)                 0         
                                                                 
 dropout (Dropout)           (12, 300)                 0         
                                                                 
 dense (Dense)               (12, 12)                  3612      
                                                                 
=================================================================
Total params: 497,412
Trainable params: 490,812
Non-trainable params: 6,600
_________________________________________________________________
frame step = 
320
frame size = 
640
in call input shape = 
(1, 16000)
Tensor("input_1:0", shape=(1, 16000), dtype=float32)
…
