…
=================================================================
 input_1 (InputLayer)        [(12, 1250)]              0         
                                                                 
 tf_op_layer_ExpandDims (Ten  [(12, 1250, 1)]          0         
 sorFlowOpLayer)                                                 
                                                                 
 tf_op_layer_ExpandDims_1 (T  [(12, 1250, 1, 1)]       0         
 ensorFlowOpLayer)                                               
                                                                 
 max_pooling2d (MaxPooling2D  (12, 250, 1, 1)          0         
 )                                                               
                                                                 
 stream (Stream)             (12, 245, 1, 3)           21        
                                                                 
 batch_normalization (BatchN  (12, 245, 1, 3)          12        
 ormalization)                                                   
                                                                 
 activation (Activation)     (12, 245, 1, 3)           0         
                                                                 
 stream_1 (Stream)           (12, 241, 1, 3)           18        
                                                                 
 batch_normalization_1 (Batc  (12, 241, 1, 3)          12        
 hNormalization)                                                 
                                                                 
 activation_1 (Activation)   (12, 241, 1, 3)           0         
                                                                 
 stream_2 (Stream)           (12, 119, 1, 6)           30        
                                                                 
 batch_normalization_2 (Batc  (12, 119, 1, 6)          24        
 hNormalization)                                                 
                                                                 
 activation_2 (Activation)   (12, 119, 1, 6)           0         
                                                                 
 stream_3 (Stream)           (12, 39, 1, 6)            0         
                                                                 
 stream_4 (Stream)           (12, 36, 1, 12)           60        
                                                                 
 batch_normalization_3 (Batc  (12, 36, 1, 12)          48        
 hNormalization)                                                 
                                                                 
 activation_3 (Activation)   (12, 36, 1, 12)           0         
                                                                 
 stream_5 (Stream)           (12, 33, 1, 24)           120       
                                                                 
 batch_normalization_4 (Batc  (12, 33, 1, 24)          96        
 hNormalization)                                                 
                                                                 
 activation_4 (Activation)   (12, 33, 1, 24)           0         
                                                                 
 dropout (Dropout)           (12, 33, 1, 24)           0         
                                                                 
 stream_6 (Stream)           (12, 792)                 0         
                                                                 
 dense (Dense)               (12, 10)                  7930      
                                                                 
 dense_1 (Dense)             (12, 2)                   22        
                                                                 
=================================================================
Total params: 8,393
Trainable params: 8,297
Non-trainable params: 96
_________________________________________________________________
=====here in tiny train ========


Train on 24588 samples
   12/24588 [..............................] - ETA: 12:38 - loss:
…
